src1/pretrained/model_2@6@8@10_80_v0_n0.pth (torch_old, 124308 bytes, 7 tensors)

incep.branch1x1.conv.weight f4 [6, 1, 1, 1, 1]
0.5431729 -0.8782698 1.0888 -0.08013892 -0.2868842 0.72420084
00000000: 610d 0b3f 4ad6 60bf cc5d 8b3f e01f a4bd
00000010: 7ce2 92be 3a65 393f

incep.branch3x3.conv.weight f4 [8, 1, 3, 3, 3]
0.004511725 0.06520632 0.04240085 -0.12882532 0.007714573 -0.12770367 -0.06814128 -0.0017004014
0.002058562 0.0022151172 -0.07480011 0.0065318774 -0.06873425 0.1485018 -0.032787878 -0.02929725
0.07022892 -0.0046547162 -0.07854704 -0.0038839749 0.038354494 -0.038840327 0.18988584 0.008098655
0.0017246312 0.09752725 -0.034661997 -0.004180883 0.21219358 -0.32270667 0.037233178 -0.47091347
0.2520985 0.013895942 0.043080483 -0.006947919 0.008289065 -0.0059694583 0.07975925 0.0031551095
0.05921523 -0.0234428 0.001165 -0.008769768 0.07430277 0.0034915342 -0.025668576 -0.0058755483
0.00025789803 -0.0014792696 0.09496463 -0.0010511316 0.042203765 -0.1951975 0.015528221 -0.017088447
0.024716342 0.016968638 -0.16022225 0.07079308 0.081779875 0.1549503 0.07856935 0.009470867
0.01829658 -0.10438865 -0.12157471 -0.22268344 0.013904426 0.03782356 0.067852 0.025035162
-0.0010901777 0.018493371 0.0027232799 0.0029195356 -0.010178118 0.010311406 -0.021030312 0.027464092
0.00044973422 0.05862932 0.19385946 -0.055025786 -0.07746273 -0.13776092 -0.07237581 -0.05715944
-0.023956623 0.056012403 -0.03675954 0.10330762 -0.08023054 0.19661544 -0.17208214 -0.11234431
0.16579743 -0.016655363 -0.0040529687 -0.035621375 -0.080127954 0.088467106 -0.005178452 -0.1412844
-0.022043604 -0.045018356 -0.0046966393 0.015195674 0.017580075 -0.05770371 0.035995375 0.0039526904
0.07470858 0.08647901 0.027833203 -0.2737787 0.03851389 -0.0036923722 0.16155401 0.047409106
-0.0019934815 0.067616925 -0.8928459 0.0299689 0.04770144 0.06796081 0.022259237 -0.19307248
0.051587902 0.005715406 0.03971926 0.06040665 -0.0013197366 0.014564388 0.010539519 -0.0030032163
0.00055786397 0.0022546465 0.041086715 -0.04900159 -0.00074904674 0.0043294514 -0.11288169 0.0029348354
0.008957628 -0.019014882 -0.04242597 -0.20893367 0.38463083 -0.012742867 0.001455433 0.30491257
-0.018879272 0.002476193 -0.0025343804 0.0018752099 0.0136315115 0.012232013 8.14282e-05 0.06241238
-0.4691242 0.043265615 0.013022287 -0.12456695 0.055691004 0.0033156427 -0.036071777 0.10288583
0.015610736 0.065250084 0.0067417747 -0.013335279 0.157912 0.16795905 -0.13839032 0.09298268
0.15257616 -0.054187715 -0.030465186 0.06967534 0.027217062 -0.0017076387 -0.10642446 -0.04158754
-0.09137883 -0.09228543 0.044827167 -0.12441767 -0.10487895 0.02367074 0.063543975 0.012947051
-0.001480709 0.038587093 0.083191186 0.019312715 -0.042545676 0.028320052 0.04577547 -0.38211554
0.17997684 0.014954878 0.06486103 -0.6467823 -0.003441791 0.052185167 0.04591377 -0.08769481
0.1126128 0.013099437 0.0319519 0.08221279 0.038205355 -0.0061901542 0.007345377 0.011314968
00000000: 18d7 933b e48a 853d 84ac 2d3d c9ea 03be
00000010: 87ca fc3b c0c4 02be a88d 8bbd 01e0 deba
00000020: f0e8 063b 802b 113b cd30 99bd 5c09 d63b
00000030: 8bc4 8cbd db10 183e 954c 06bd c900 f0bc
00000040: 2ed4 8f3d 9786 98bb 45dd a0bd 498a 7ebb
00000050: 9a19 1d3d 0917 1fbd 6f71 423e 39b0 043c
00000060: 050d e23a 5ebc c73d bdf9 0dbd caff 88bb
00000070: 4649 593e cf39 a5be d181 183d 921b f1be
00000080: 0e13 813e ceab 633c 2975 303d 5eab e3bb
00000090: dcce 073c 729b c3bb d158 a33d f4c5 4e3b
000000a0: ab8b 723d 1d0b c0bc eab2 983a 13af 0fbc
000000b0: 0d2c 983d 39d2 643b e846 d2bc ac87 c0bb
000000c0: 7d36 8739 0de4 c1ba d17c c23d 20c6 89ba
000000d0: dbdd 2c3d dae1 47be 146a 7e3c 12fd 8bbc
000000e0: ed79 ca3c d001 8b3c 4d11 24be f6fb 903d
000000f0: 357c a73d 4bab 1e3e f8e8 a03d b22b 1b3c
00000100: b6e2 953c b7c9 d5bd 29fc f8bd 2107 64be
00000110: 64cf 633c e1ec 1a3d fdf5 8a3d 8a16 cd3c
00000120: 4be4 8eba 697f 973c 0e79 323b ae55 3f3b
00000130: 1fc2 26bc 2cf1 283c c347 acbc 60fc e03c
00000140: 4eca eb39 4c25 703d 1883 463e b862 61bd
00000150: c8a4 9ebd 3311 0dbe c539 94bd 0420 6abd
00000160: ae40 c4bc 436d 653d 2c91 16bd f292 d33d
00000170: e94f a4bd 8f55 493e 4d36 30be c614 e6bd
00000180: cdc6 293e d470 88bc c4ce 84bb b8e7 11bd
00000190: 201a a4bd 3e2e b53d 01b0 a9bb dcac 10be
000001a0: ca94 b4bc 2b65 38bd 44e6 99bb 47f7 783c
000001b0: 1704 903c ba5a 6cbd e36f 133d 9285 813b
000001c0: d000 993d e81b b13d 7502 e43c b92c 8cbe
000001d0: bec0 1d3d bafb 71bb 6a6e 253e 0d30 423d
000001e0: 12a5 02bb be7a 8a3d 8d91 64bf 5781 f53c
000001f0: 9662 433d 0a2f 8b3d 0159 b63c cbb4 45be
00000200: d64d 533d 4d48 bb3b aab0 223d f76c 773d
00000210: 03fb acba 799f 6e3c f2ad 2c3c 9cd1 44bb
00000220: 9e3d 123a b1c2 133b 8b4a 283d e4b5 48bd
00000230: ad5b 44ba 12de 8d3b 842e e7bd 5e56 403b
00000240: 04c3 123c 19c5 9bbc dbc6 2dbd b5f2 55be
00000250: 55ee c43e 75c7 50bc 3ac4 be3a 801d 9c3e
00000260: b4a8 9abc a047 223b d917 26bb 9ac9 f53a
00000270: b456 5f3c c868 483c 6fc4 aa38 20a4 7f3d
00000280: 0c31 f0be 4937 313d 6e5b 553c f51c ffbd
00000290: 401c 643d 414b 593b 00c0 13bd ceb5 d23d
000002a0: 2cc4 7f3c d6a1 853d 1bea dc3b 377c 5abc
000002b0: afb3 213e 75fd 2b3e 31b6 0dbe b46d be3d
000002c0: ed3c 1c3e f0f3 5dbd 2092 f9bc f2b1 8e3d
000002d0: 51f6 de3c d9d2 dfba 11f5 d9bd b257 2abd
000002e0: d324 bbbd 2500 bdbd b19c 373d b1ce febd
000002f0: c6ca d6bd 24e9 c13c 5823 823d de1f 543c
00000300: 5914 c2ba 800d 1e3d 2460 aa3d b335 9e3c
00000310: 6044 2ebd 74ff e73c 0f7f 3b3d a6a4 c3be
00000320: d94b 383e 4e05 753c dcd5 843d 8693 25bf
00000330: ac8f 61bb 1dc0 553d 1410 3c3d 5699 b3bd
00000340: 8aa1 e63d 059f 563c ffdf 023d 2e5f a83d
00000350: 387d 1c3d c7d6 cabb 7db1 f03b 6a62 393c

incep.branch5x5.conv.weight f4 [10, 1, 5, 5, 5]
-0.0022655728 0.0020462102 0.0018225382 0.0050419336 -0.0066122604 -0.0010613668 -0.0045049977 0.01269378
-0.021400828 -0.00044690017 -0.0028462622 0.004646665 -0.03564639 0.00961483 0.0023245818 0.0014522906
0.0074478206 -0.024835201 -0.0009659265 -0.0005446114 -0.0032483654 -0.0013249434 -0.0013000427 0.0044492558
-0.0012671013 0.0025756669 -0.039439123 -0.023955606 -0.012463856 0.001742828 0.00046559607 -0.010874527
-0.006807605 -0.07416418 0.0015697025 -0.020300414 -0.029191634 -0.019235732 -0.073753536 -0.011516641
-0.010208906 -0.02084727 -0.06376219 -0.027255625 -0.007521771 -0.009702734 0.016315578 -0.00300431
-0.0133883245 0.006172881 -0.028275099 -0.058071725 -0.04660058 -0.09297196 -0.010388769 0.0033743535
-0.03432399 0.025625797 -0.0667924 -0.0076378114 -0.03579069 -0.030583045 0.2628607 0.22575279
-0.037063353 -0.02368621 -0.022920124 0.17301762 0.087167196 0.0128321955 -0.0037182646 -0.02360897
0.041091617 0.0001807019 0.0010795094 0.0018372833 -0.013258226 -0.044159323 -0.03815829 -0.012176481
-0.0012521461 -0.017681554 -0.029243737 -0.01993806 0.00847903 -0.010682383 -0.05379122 -0.00044167167
0.005591286 -0.043530315 0.013353144 -0.027502157 0.033396136 0.044981 -0.029068992 -0.0020852957
-0.010489244 0.0034798777 -0.019433964 -0.017364603 -0.0065853144 -0.011905598 -0.011416985 -0.02034114
-0.0045535285 0.0020463716 -0.017493179 -0.06698963 -0.006642695 -0.0004827524 0.0011958467 -0.0005617385
-0.056886885 -0.035242032 -0.011773018 -0.008019265 0.0013960699 -0.05632863 -0.03631994 0.000788492
0.0007065442 0.0022641171 -0.033377692 -0.006717898 0.0028689185 0.009784198 0.0049468433 0.0034129615
0.012553982 0.0041490067 0.005932346 0.015449926 0.020523638 0.004406846 0.009544386 0.011517819
0.013084896 0.0366501 0.0170757 0.006649537 0.015407621 4.8572725e-05 0.027012542 -0.0005341526
0.006909969 0.0070242095 0.010058603 0.0014495143 0.008529613 0.0038157383 0.014042462 0.018744843
0.007952005 0.017637752 0.0033359884 0.0025851275 -0.07764017 -0.037958365 0.0024971578 0.01845222
0.016809205 0.051392455 -0.13266139 0.03482509 0.0058371136 -0.0010205071 0.029485175 0.051041197
0.0063551236 -0.0016187114 2.3676483e-05 0.00684124 0.020016717 -0.0018513736 0.008224651 0.0036151537
0.015139023 0.02940247 0.023166372 0.013233215 0.026282188 0.03702352 -0.0663108 0.05258399
-0.0018126679 0.008144476 0.0220994 -0.8646119 -0.024431037 0.020034231 0.021488775 -0.07561889
-0.1464559 0.04299604 0.01152245 0.016789813 0.006385281 0.052941207 0.0077748816 0.00019623332
0.006053275 0.012718282 0.010227398 0.01379815 0.0059005884 0.003868827 0.014775793 0.032824073
0.007812798 0.00390769 0.011520278 0.03853473 -0.1399172 0.037179302 0.0054768347 0.017204758
0.038817424 0.02016179 0.0048352224 0.013345463 0.0032348153 0.017972259 0.004653 0.0014529089
0.005010176 0.0063428343 0.005220073 0.0066295564 0.0004411968 0.010375814 0.005451912 0.0012633092
0.0040926207 0.011796862 0.004524297 0.013809734 0.012915386 0.024481364 -0.0022685127 0.0041608186
-0.0045353738 0.005820376 0.013679347 0.0050146948 0.0035180668 0.0101809865 0.0037207843 0.011588914
0.004696692 0.0018027674 0.031177448 -0.24093421 0.023358969 0.0050589405 0.0035975266 -0.14791824
00000000: 017a 14bb b619 063b 3ce2 ee3a ce36 a53b
00000010: a9ab d8bb 8f1d 8bba a99e 93bb 92f9 4f3c
00000020: ca50 afbc ed4d eab9 5b88 3abb 0d43 983b
00000030: f301 12bd 8587 1d3c 0358 183b c95a be3a
00000040: d90c f43b 3173 cbbc 3b36 7dba 41c4 0eba
00000050: 87e2 54bb b9a9 adba 3266 aaba 10cb 913b
00000060: dd14 a6ba 85cc 283b eb8a 21bd 8c3e c4bc
00000070: 3335 4cbc 9b6f e43a 3f1b f439 122b 32bc
00000080: 5412 dfbb 64e3 97bd 7abe cd3a 0e4d a6bc
00000090: 4b23 efbc 4194 9dbc 180c 97bd 4bb0 3cbc
000000a0: 4143 27bc e5c7 aabc c095 82bd 3047 dfbc
000000b0: 3079 f6bb 37f8 1ebc 3fa8 853c f5e3 44bb
000000c0: b45a 5bbc e145 ca3b 2ea1 e7bc 9edc 6dbd
000000d0: 40e0 3ebd 1568 bebd a835 2abc 4224 5d3b
000000e0: 5097 0cbd 31ed d13c 74ca 88bd 9b46 fabb
000000f0: 4299 12bd 4b89 fabc ad95 863e bd2b 673e
00000100: becf 17bd 9509 c2bc fcc2 bbbc 882b 313e
00000110: b784 b23d 213e 523c 21ae 73bb 9967 c1bc
00000120: af4f 283d cc7a 3d39 537e 8d3a ffd0 f03a
00000130: 0839 59bc 68e0 34bd de4b 1cbd dd7f 47bc
00000140: 0d1f a4ba e8d8 90bc 9090 efbc 2455 a3bc
00000150: a1eb 0a3c 2905 2fbc 2f54 5cbd 2b90 e7b9
00000160: 1b37 b73b d84c 32bd 25c7 5a3c 344c e1bc
00000170: 63ca 083d ff3d 383d 1822 eebc 75a9 08bb
00000180: 14db 2bbc a90e 643b fa33 9fbc 3640 8ebc
00000190: 9fc9 d7bb b30f 43bc 4e0e 3bbc 76a2 a6bc
000001a0: c435 95bb 6b1c 063b db4d 8fbc dc31 89bd
000001b0: f7aa d9bb ee19 fdb9 f5bd 9c3a a241 13ba
000001c0: 3902 69bd f359 10bd 9ee3 40bc 3c63 03bc
000001d0: 55fc b63a d9b8 66bd 38c4 14bd cdb2 4e3a
000001e0: 6137 393a 9561 143b 0cb7 08bd d021 dcbb
000001f0: 7704 3c3b e74d 203c 2119 a23b feab 5f3b
00000200: 38af 4d3c 64f4 873b 2064 c23b b021 7d3c
00000210: 3021 a83c 4e67 903b 0e60 1c3c 3cb5 3c3c
00000220: 0862 563c 6a1e 163d 57e2 8b3c 5ce4 d93b
00000230: 3f70 7c3c 91ba 4b38 6849 dd3c 6006 0cba
00000240: 056d e23b 572b e63b d7cc 243c a1fd bd3a
00000250: cabf 0b3c 7711 7a3b 5b12 663c c98e 993c
00000260: 2049 023c 0c7d 903c 99a0 5a3b 3e6b 293b
00000270: cf01 9fbd 3b7a 1bbd 5ba7 233b 1c29 973c
00000280: 75b3 893c e580 523d 63d8 07be c1a4 0e3d
00000290: 4245 bf3b 89c2 85ba e58a f13c 9310 513d
000002a0: a43e d03b f12a d4ba dc9c c637 7b2c e03b
000002b0: 19fa a33c caa9 f2ba b0c0 063c 37ec 6c3b
000002c0: aa09 783c 73dd f03c 67c7 bd3c 20d0 583c
000002d0: be4d d73c f9a5 173d f5cd 87bd 4f62 573d
000002e0: 0b97 edba 6970 053c cd09 b53c 3557 5dbf
000002f0: 9923 c8bc d41e a43c 3a09 b03c 14de 9abd
00000300: 89f8 15be 9e1c 303d a8c8 3c3c ca8a 893c
00000310: 9f3b d13b e1d8 583d 6fc4 fe3b fbc3 4d39
00000320: 8d5a c63b 5760 503c d190 273c a311 623c
00000330: b959 c13b 258c 7d3b 2b16 723c 8972 063d
00000340: 4001 003c 140c 803b 8cbf 3c3c 98d6 1d3d
00000350: 7446 0fbe 5349 183d 0577 b33b fef0 8c3c
00000360: 05ff 1e3d 572a a53c c970 9e3b eea6 5a3c
00000370: 32ff 533b 8f3a 933c 3178 983b 886f be3a
00000380: 672c a43b 8dd7 cf3b 250d ab3b c03c d93b
00000390: 6f50 e739 51ff 293c f4a5 b23b 9f95 a53a
000003a0: 641b 863b a047 413c 8e40 943b 3942 623c
000003b0: 0e9b 533c 248d c83c 54ab 14bb 7a57 883b
000003c0: 799d 94bb dab8 be3b 571f 603c 4f52 a43b
000003d0: 5e8f 663b 27ce 263c 67d8 733b 6edf 3d3c
000003e0: b5e6 993b d64a ec3a d967 ff3c 75b7 76be
000003f0: 4f5b bf3c 78c5 a53b 7bc4 6b3b e177 17be

incep.branch_pool.conv.weight f4 [3, 1, 1, 1, 1]
-0.0011171653 -0.3263831 0.19811495
00000000: d96d 92ba b01b a7be a5de 4a3e

conv1.conv.weight f4 [27, 27, 3, 3, 3]
0.017975848 -0.028582204 -0.008804941 0.013061673 0.04596833 0.006427832 0.037559565 0.02824725
-0.005508878 -0.054413717 -0.021862695 0.008129547 -0.026161086 -0.0045877113 0.019414527 -0.024300849
-0.009454513 0.057793554 0.015045035 0.007813899 0.006337554 -0.009273177 0.0026241764 0.06277487
-0.056170654 -0.042718254 0.023976764 0.023146462 -0.025058575 0.018363617 0.0118200965 0.025521427
0.026407525 -0.018977774 0.021150533 -0.028370257 -0.01749078 -0.014641484 0.030771859 0.0068458393
0.014817096 0.035146467 0.009819929 0.01905914 0.028434202 -0.023820886 0.006012708 0.0047387592
0.0144937 -0.0017279051 0.02811724 -0.025658432 -0.01668924 0.036800496 -0.008017547 0.016745836
-0.012725861 -0.0024555183 0.061548196 0.026476089 -0.018835803 0.016069915 0.00061529526 -0.0069499128
0.032458067 0.011421564 -0.060458295 0.027269186 0.07539819 -0.0059884586 -0.0033468022 0.022246119
0.023890289 0.021762488 -0.013062732 -0.006912626 -0.00053943327 0.04803931 -0.003542181 -0.09042561
0.0022420578 0.004069999 0.029743746 0.01946804 0.02714257 0.018983182 0.02615109 -0.008458534
-0.0063079502 0.024131648 -0.023475753 0.005458899 0.029211812 -0.032109108 -0.020022383 -0.007800618
0.00032563508 -0.03129119 0.025623374 -0.003971886 0.014165208 -0.004332371 0.035806626 -0.010411695
0.030337907 -0.020333786 0.03354484 -0.013361206 -0.011750981 0.022456333 0.036722496 0.023518171
0.009007435 0.020910326 -0.022194628 0.00024349988 -0.0004361868 -0.022864006 -0.013461899 0.0038388893
-0.007171627 -0.013835695 0.009808186 0.028226212 0.02854558 -0.023354376 0.011600699 0.027875736
0.026118122 -0.013309959 -0.03578351 0.030168682 -0.020409174 -0.004189506 0.0089144185 -0.009788261
0.019649798 0.0021079099 -0.00681942 0.04233497 0.029502057 -0.0035554916 0.010034628 -0.039507717
-0.021067495 0.0023071715 0.0078089084 -0.052448563 -0.004526924 0.026855404 0.022559518 -0.02311441
0.071640514 0.011978897 -0.014588833 -0.012281819 0.0078483885 0.018087562 0.020402543 0.015045977
-0.057418503 0.019339565 -0.0025797386 -0.021432681 0.05326229 -0.018856905 -0.032341633 -0.024747958
0.02064431 -0.024111807 0.008085236 -0.02580576 -0.09196348 -0.07682046 0.030982424 -0.1663482
-0.09370072 0.008692584 -0.030497061 -0.030978965 -0.038997207 -0.097687244 -0.025960028 -0.050566826
-0.08111511 -0.032061063 -0.038810436 -0.0032048142 -0.033414338 0.027070375 0.07297188 0.04540618
0.018277945 0.054258447 0.037680052 0.036043882 0.02797209 0.042214096 0.083735436 0.08430251
0.12702137 0.06836285 -0.056608222 0.097438134 0.12494215 0.10378659 0.087938495 0.11915474
0.11050765 0.14172293 0.12229417 -0.014442071 0.04378517 -0.05811973 0.007879415 0.030103963
-0.0008894568 0.014576126 -0.046964943 -0.005039097 -0.031159127 -0.007798754 -0.007560115 0.016188502
0.009809149 -0.047164306 -0.0877346 -0.0184997 -0.016221646 -0.06071866 0.025798464 0.007597028
-0.046683818 -0.008648194 0.07005929 -0.03118725 0.01239017 0.1097061 -0.0789861 -0.06069225
0.016782463 0.008065321 0.015541289 -0.005772834 -0.036507577 -0.07678634 -0.008504419 -0.089138314
-0.087778375 -0.027744796 -0.031877197 -0.028715108 -0.04980241 -0.13141999 -0.030074893 -0.04342867
00000000: 1642 933c 3a25 eabc 9942 10bc a100 563c
00000010: 4a49 3c3d 90a0 d23b 0fd8 193d c766 e73c
00000020: d183 b4bb ebe0 5ebd 6519 b3bc cb31 053c
00000030: c64f d6bc 8354 96bb 370b 9f3c 9312 c7bc
00000040: 1ae7 1abc efb8 6c3d 737f 763c de05 003c
00000050: 42ab cf3b 86ee 17bc 60fa 2b3b 1c90 803d
00000060: 3313 66bd 56f9 2ebd eb6a c43c a69d bd3c
00000070: a447 cdbc 4c6f 963c 14a9 413c 5012 d13c
00000080: 9854 d83c 4777 9bbc e243 ad3c be68 e8bc
00000090: d348 8fbc d6e2 6fbc 4415 fc3c 1053 e03b
000000a0: 68c3 723c bef5 0f3d c4e3 203c ea21 9c3c
000000b0: d8ee e83c 0524 c3bc 4006 c53b 9847 9b3b
000000c0: fc76 6d3c e07a e2ba 2056 e63c a231 d2bc
000000d0: dfb7 88bc 1ebc 163d 085c 03bc 902e 893c
000000e0: 2180 50bc c3ec 20bb f619 7c3d 62e4 d83c
000000f0: 8b4d 9abc 0ea5 833c c44b 213a 18bc e3bb
00000100: c0f2 043d 8321 3b3c 1ea3 77bd a163 df3c
00000110: 5e6a 9a3d d53a c4bb 0656 5bbb 7e3d b63c
00000120: 91b5 c33c 3f47 b23c 1205 56bc 4f83 e2bb
00000130: c168 0dba dec4 443d f023 68bb 1031 b9bd
00000140: 7def 123b a05d 853b 28a9 f33c 707b 9f3c
00000150: 185a de3c 9e82 9b3c d03a d63c aa95 0abc
00000160: ecb2 cebb bcaf c53c 3950 c0bc 90e0 b23b
00000170: 9c4d ef3c d784 03bd fb05 a4bc 549c ffbb
00000180: 00ba aa39 312b 00bd 1ce8 d13c 9826 82bb
00000190: 3015 683c 90f6 8dbb f8a9 123d d095 2abc
000001a0: 3487 f83c 0a93 a6bc 5066 093d f6e8 5abc
000001b0: 3087 40bc 58f6 b73c 546a 163d 2ea9 c03c
000001c0: ec93 133c 224c ab3c 82d1 b5bc 0054 7f39
000001d0: 00b0 e4b9 4c4d bbbc 4c8f 5cbc e095 7b3b
000001e0: f8ff eabb 1caf 62bc 84b2 203c a83a e73c
000001f0: 6cd8 e93c ad51 bfbc dc10 3e3c a85b e43c
00000200: acf5 d53c 0412 5abc bb91 12bd 5024 f73c
00000210: 2431 a7bc 2048 89bb c80d 123c f15e 20bc
00000220: 9df8 a03c dc24 0a3b 7175 dfbb 6f67 2d3d
00000230: 4cae f13c 4003 69bb 4868 243c d8d2 21bd
00000240: bd95 acbc ea33 173b dfe1 ff3b 4ed4 56bd
00000250: 9756 94bb ddff db3c bdce b83c 6e5a bdbc
00000260: 43b8 923d 2343 443c 0006 6fbc af39 49bc
00000270: 8796 003c 5e2c 943c 3c23 a73c 6783 763c
00000280: aa2f 6bbd 026e 9e3c d510 29bb 9793 afbc
00000290: 8f29 5a3d cc79 9abc a978 04bd 3bbc cabc
000002a0: 421e a93c 2086 c5bc f077 043c 9a66 d3bc
000002b0: 5957 bcbd 0c54 9dbd dace fd3c 2f57 2abe
000002c0: 2ae6 bfbd 576b 0e3c f9d4 f9bc 99c7 fdbc
000002d0: 89bb 1fbd 4010 c8bd 20aa d4bc 291f 4fbd
000002e0: ae1f a6bd 7652 03bd b1f7 1ebd dc07 52bb
000002f0: 79dd 08bd b1c2 dd3c 4872 953d d5fb 393d
00000300: a1bb 953c 1b3e 5e3d 6656 1a3d c0a2 133d
00000310: b925 e53c b0e8 2c3d 7c7d ab3d cba6 ac3d
00000320: e411 023e d201 8c3d 06de 67bd a58d c73d
00000330: ace1 ff3d 108e d43d 1919 b43d 6607 f43d
00000340: d651 e23d d11f 113e 5e75 fa3d 709e 6cbc
00000350: 1458 333d f40e 6ebd a918 013c 969c f63c
00000360: 6f2a 69ba b4d0 6e3c 505e 40bd 021f a5bb
00000370: 6d41 ffbc b18c ffbb d7ba f7bb c09d 843c
00000380: 8eb6 203c 5c2f 41bd 33ae b3bd af8c 97bc
00000390: 42e3 84bc 21b4 78bd 4d57 d33c 7df0 f83b
000003a0: 8837 3fbd 28b1 0dbc 3f7b 8f3d 677c ffbc
000003b0: 2400 4b3c 97ad e03d 77c3 a1bd 7098 78bd
000003c0: 607b 893c 6824 043c e4a0 7e3c 0b2a bdbb
000003d0: f888 15bd 2842 9dbd 1e56 0bbc 268e b6bd
000003e0: 26c5 b3bd 0e49 e3bc aa91 02bd f23b ebbc
000003f0: 9dfd 4bbd f692 06be 9f5f f6bc 43e2 31bd

conv2.conv.weight f4 [13, 27, 3, 3, 3]
0.0068439366 -0.0056733065 0.03799939 0.021917613 0.0074704248 0.017942335 0.021134162 0.042521633
0.06464918 -0.009054293 -0.009400776 0.014558461 0.026016284 0.023854382 0.027078073 0.013103642
0.02656225 0.056816608 0.027580235 0.040291753 0.060657647 0.05081087 0.05291161 0.06361623
0.070484184 0.044849243 0.07753264 0.009456497 0.0076725567 0.007605172 0.0126179885 0.015740136
0.008056619 0.0037624922 0.0064305523 0.00450662 0.0070774057 0.016201105 0.011011188 0.017150871
0.033164095 0.013301286 0.0074155997 0.012691454 0.011034324 0.00054371386 0.0087188035 0.007282479
0.01249089 0.019420477 0.011276077 0.007859558 0.008270762 0.0036800469 0.018557351 -0.017552186
0.05802213 0.011192603 0.053756118 0.07016779 -0.03603674 0.0030478325 -0.0068803458 0.008660232
0.032031875 0.02350674 -0.03234721 0.04946642 0.060908236 -0.04105175 0.032383014 0.034716576
-0.022120308 0.074128725 0.02027986 0.022254344 0.020296736 0.050753694 0.0060100025 -0.03964315
-0.026906349 0.02744538 0.023525612 0.029008534 0.010504115 0.030025952 0.030724507 0.001364929
0.01420819 0.025877196 0.029015068 0.04099529 0.04248397 0.017584613 0.030531682 0.02323536
0.015569533 0.013306222 0.024688262 0.02723364 0.022251649 0.04701536 0.018854648 0.016154531
0.024832675 0.014117194 0.013752145 0.01011985 -0.06722882 -0.07064466 -0.07958498 -0.0022303995
-0.111526966 -0.1997985 -0.09820057 -0.1970486 -0.12420889 -0.0020131331 -0.008145318 -0.082861975
-0.011199025 -0.12040529 -0.17965695 -0.09559871 -0.23816057 -0.1663904 -0.06954414 -0.041932106
-0.07076285 -0.047842048 -0.050935805 -0.12762444 -0.08056887 -0.07157817 -0.08644973 0.2192372
0.20630236 0.22078647 0.21658537 0.26357567 0.22691122 0.17443441 0.21346033 0.21554579
0.23769903 0.2845552 0.2748413 0.20103368 0.18833548 0.261919 0.19194072 0.24975827
0.2179522 0.2019626 0.23793682 0.244535 0.21521623 0.22031331 0.21642637 0.1943164
0.21083069 0.22078666 -0.18198489 -0.0726066 -0.047360957 -0.104158945 -0.0415509 -0.046052437
-0.19019948 -0.1496178 -0.08807766 -0.14414166 -0.06784856 -0.07656198 -0.33899206 -0.10805322
-0.08875698 -0.18456791 -0.13828601 -0.07033038 -0.16805884 -0.060810186 -0.10665691 -0.24435346
-0.14714792 -0.094710834 -0.21800171 -0.13133281 -0.11507594 0.038393553 0.04419734 0.010428917
-0.0029238714 0.036791567 0.060369555 -0.018739576 0.015103957 0.038135033 0.017724471 0.049103603
0.021910269 -0.12698868 0.015659984 0.045470137 -0.0766229 -0.013008109 0.028569495 0.01433872
0.05552958 -0.006303991 -0.049854893 0.032613486 0.028629046 -0.020456832 0.001630641 0.019977184
-0.01092601 -0.0019156819 -0.0024656206 -0.0006305204 -0.0009814417 -0.013906285 -0.0074365344 -0.0041291853
0.0061604404 -0.013216498 0.0057868497 -0.0035549218 0.0027292497 0.007004873 0.0026081803 -0.00018237192
0.009992293 0.00090309145 -0.047298685 -0.01345189 -0.01031609 -0.004076831 -0.0019725799 -0.0050263116
7.0059104e-05 0.0042175385 -0.0064238883 -0.0064919004 -0.0021853938 -0.0035359513 0.0074997908 0.0058318162
0.0028769786 -0.013051293 -0.011585037 -0.0007019954 0.0051588123 -0.018635351 -0.004614149 -0.01575798
00000000: 1a43 e03b 25e7 b9bb 40a5 1b3d 918c b33c
00000010: 77ca f43b cefb 923c 8d21 ad3c 2a2b 2e3d
00000020: ca66 843d 7558 14bc b605 1abc 9c86 6e3c
00000030: 1a20 d53c 446a c33c d6d2 dd3c a8b0 563c
00000040: 1399 d93c 88b8 683d f2ef e13c f708 253d
00000050: 2774 783d 0f1f 503d d8b9 583d 3a49 823d
00000060: 035a 903d d7b3 373d 6fc9 9e3d 6cef 1a3c
00000070: 126a fb3b cf34 f93b aebb 4e3c 75f1 803c
00000080: e9ff 033c 2594 763b 62b7 d23b 45ac 933b
00000090: 95e9 e73b 2eb8 843c 4568 343c fc7f 8c3c
000000a0: 13d7 073d a3ed 593c 8ffe f23b d1ef 4f3c
000000b0: 4fc9 343c 0588 0e3a 50d9 0e3c dda1 ee3b
000000c0: 97a6 4c3c b117 9f3c 4bbf 383c 60c5 003c
000000d0: 1782 073c f12c 713b 9605 983c 9ac9 8fbc
000000e0: 9da8 6d3d 2e61 373c 602f 5c3d 21b4 8f3d
000000f0: 439b 13bd 25be 473b 8674 e1bb a5e3 0d3c
00000100: db33 033d 3591 c03c 827e 04bd 4d9d 4a3d
00000110: ea7a 793d e125 28bd 0da4 043d f832 0e3d
00000120: a635 b5bc cdd0 973d f321 a63c be4e b63c
00000130: 5745 a63c 1be3 4f3d 8eef c43b db60 22bd
00000140: b46a dcbc 22d5 e03c c9b8 c03c 4ea3 ed3c
00000150: 7419 2c3c fcf8 f53c f6b1 fb3c 6be7 b23a
00000160: 78c9 683c 6afc d33c 02b1 ed3c adea 273d
00000170: ac03 2e3d 9b0d 903c 941d fa3c 1558 be3c
00000180: 5b17 7f3c 5702 5a3c 0a3f ca3c 1519 df3c
00000190: 1749 b63c 2e93 403d 1075 9a3c 8256 843c
000001a0: e56d cb3c ce4b 673c ad50 613c bacd 253c
000001b0: 43af 89bd 26ae 90bd 73fd a2bd e52b 12bb
000001c0: 4068 e4bd fa97 4cbe 611d c9bd 1cc7 49be
000001d0: 3b61 febd c5ee 03bb f173 05bc 8ab3 a9bd
000001e0: 1e7c 37bc 0c97 f6bd fef7 37be 42c9 c3bd
000001f0: 5de0 73be 3f62 2abe 286d 8ebd 00c1 2bbd
00000200: 1dec 90bd 06f6 43bd 10a2 50bd fbaf 02be
00000210: 4b01 a5bd 9397 92bd 8e0c b1bd b77f 603e
00000220: ed40 533e d915 623e 8ec8 5d3e 64f3 863e
00000230: 6a5b 683e ef9e 323e 5895 5a3e 09b8 5c3e
00000240: 6067 733e 38b1 913e 00b8 8c3e c6db 4d3e
00000250: 04db 403e 3f1a 863e 1c8c 443e a2c0 7f3e
00000260: dd2e 5f3e 49cf 4e3e b6a5 733e 6267 7a3e
00000270: a561 5c3e d099 613e e09e 5d3e e1fa 463e
00000280: 00e4 573e e615 623e 3f5a 3abe c5b2 94bd
00000290: 90fd 41bd 4951 d5bd 4731 2abd 7ba1 3cbd
000002a0: a7c3 42be 6935 19be 0f62 b4bd df99 13be
000002b0: 30f4 8abd 87cc 9cbd 5e90 adbe 024b ddbd
000002c0: 38c6 b5bd 5fff 3cbe d99a 0dbe 6009 90bd
000002d0: 9e17 2cbe 1a14 79bd f06e dabd cb37 7abe
000002e0: f2ad 16be c1f7 c1bd d73b 5fbe 1c7c 06be
000002f0: efac ebbd 8f42 1d3d 4508 353d 0cde 2a3c
00000300: 6c9e 3fbb c1b2 163d 1146 773d bd83 99bc
00000310: 9676 773c 7b33 1c3d e932 913c dc20 493d
00000320: 2a7d b33c 5209 02be 5e49 803c e53e 3a3d
00000330: 78ec 9cbd f71f 55bc 930a ea3c f3ec 6a3c
00000340: fc72 633d b691 cebb a534 4cbd b895 053d
00000350: 7687 ea3c 1695 a7bc 3cbb d53a 31a7 a33c
00000360: 0203 33bc 9e17 fbba 4096 21bb 8249 25ba
00000370: b8a3 80ba 30d7 63bc 2cae f3bb 1e4e 87bb
00000380: 85dd c93b 038a 58bc 9d9f bd3b b1f9 68bb
00000390: 36dd 323b 2289 e53b 01ee 2a3b 173b 3fb9
000003a0: b7b6 233c 71bd 6c3a 44bc 41bd 5165 5cbc
000003b0: d104 29bc f096 85bb 6646 01bb c2b3 a4bb
000003c0: b2ec 9238 4733 8a3b 7b7f d2bb 02ba d4bb
000003d0: d338 0fbb 6bbb 67bb cec0 f53b d218 bf3b
000003e0: b18b 3c3b 17d5 55bc 2bcf 3dbc 1d06 38ba
000003f0: 410b a93b 2aa9 98bc 4a32 97bb e116 81bc

conv3.conv.weight f4 [2, 13, 1, 1, 1]
-0.05585727 0.02172586 0.13487987 0.08225547 -0.04393777 -0.050016742 0.18948655 0.14976332
-0.11247234 0.10895353 -0.14205803 0.08157681 0.060124367 0.0075530815 -0.1675268 0.18706404
0.5493048 0.16131942 0.18329124 0.11500077 0.15286547 -0.45584023 -0.16769767 0.024343109
0.15319079 0.13530596
00000000: 98ca 64bd 6efa b13c f31d 0a3e 8e75 a83d
00000010: 17f8 33bd 5bde 4cbd c308 423e 8e5b 193e
00000020: e657 e6bd 0723 df3d a977 11be be11 a73d
00000030: f844 763d d77f f73b 258c 2bbe b78d 3f3e
00000040: 3d9f 0c3f eb30 253e b3b0 3b3e 8685 eb3d
00000050: c488 1c3e e463 e9be f0b8 2bbe 336b c73c
00000060: 0cde 1c3e a58d 0a3e
